assets/model1.tflite (tflite, 742140 bytes, 16 tensors)

sequential_3/conv2d_6/Relu;sequential_3/conv2d_6/BiasAdd;sequential_3/conv2d_6/Conv2D;sequential_3/conv2d_6/BiasAdd/ReadVariableOp f4 [32, 3, 3, 3]
000000 ef 14 f3 b9 5c fa 23 ba 3f 15 5c 39 e2 07 04 ba
       -0.00046364169 -0.0006255263 0.0002098875 -0.0005036575
000010 f4 62 77 b9 50 33 a0 39 36 b4 aa b8 b3 18 7b 38
       -0.00023592619 0.0003055581 -8.1397986e-05 5.9866066e-05
000020 c9 e8 9e b8 f4 39 91 39 4e da 4d b9 f2 5a ae b9
       -7.577387e-05 0.00027699734 -0.00019631648 -0.00033255626
000030 ea cb b2 39 b4 85 f0 38 d8 da 3c b9 6a 4d 92 b8
       0.00034102733 0.00011468996 -0.00018010603 -6.976242e-05
000040 bd 68 ac b6 6b 66 fb b9 fd b7 18 39 e3 85 b2 b9
       -5.1381926e-06 -0.00047950758 0.0001456439 -0.0003405056
000050 d5 15 83 39 7e ba ce b9 be f3 62 37 01 e3 a4 b9
       0.00025002533 -0.0003943033 1.35274e-05 -0.0003144965
000060 35 49 02 3a 5f ba e4 b9 af 82 0b 3a cc 4b 05 ba
       0.0004970015 -0.00043626406 0.00053219026 -0.0005084842
000070 78 88 db b9 e0 f7 b3 39 90 2e b6 b8 60 ea e5 39
       -0.00041872612 0.00034326222 -8.687109e-05 0.00043852907
000080 e6 10 a7 b9 ef 74 28 ba b1 d3 bd b9 ce 73 d4 b9
       -0.00031865312 -0.0006426116 -0.00036206612 -0.00040522072
000090 5e 38 98 39 41 8d 07 3a 0f 8e ec 39 56 94 0f ba
       0.00029033696 0.000517089 0.0004511927 -0.0005477121
0000a0 ea d9 aa b9 5d c8 f0 39 8d 3f 33 b7 8e 8b d0 39
       -0.00032587285 0.0004592565 -1.0684028e-05 0.00039776828
0000b0 b8 30 c3 39 0d ef 4f 39 10 2e 9f 39 04 ca 81 39
       0.00037229597 0.00019830112 0.00030361162 0.0002475531
0000c0 93 21 ef 38 57 b2 45 b8 28 f5 86 b8 4f c2 b5 b8
       0.00011402662 -4.7134552e-05 -6.435282e-05 -8.666945e-05
0000d0 46 24 15 ba b0 f9 9c b9 d1 7f 01 ba 8d f0 03 39
       -0.0005689304 -0.0002994067 -0.00049400056 0.00012582746
0000e0 41 62 f8 38 84 f7 12 ba 29 72 97 37 4d ab 07 3a
       0.00011843863 -0.0005606341 1.8053763e-05 0.0005175367
0000f0 80 7c 24 b8 12 52 e6 39 6f 1f d9 39 57 ec 1c 38
       -3.9216597e-05 0.00043930166 0.00041412885 3.7413407e-05
000100 a4 59 00 ba 5d 30 81 38 69 a3 fa b8 a1 1d cc b8
       -0.000489617 6.160208e-05 -0.000119513665 -9.732997e-05
000110 c9 7b 0d 3a 20 90 58 b9 76 6a c6 38 85 0c 96 39
       0.00053971686 -0.00020653056 9.4612056e-05 0.00028619557
000120 b5 49 74 39 ab f6 10 b7 1e f7 ba 39 61 db ce b9
       0.00023297111 -8.640501e-06 0.000356608 -0.00039454832
000130 59 57 87 39 1a f7 cf b8 99 47 25 ba 18 4e 0a b9
       0.00025814286 -9.9165554e-05 -0.00063049194 -0.00013189798
000140 aa f4 5e b9 ed c9 8c b9 d3 88 f1 39 76 e3 f5 b9
       -0.00021262714 -0.00026853327 0.00046069044 -0.00046899513
000150 43 f2 cd b9 00 69 7b 39 c1 5e 4e 39 6c b3 b5 b9
       -0.00039281146 0.00023976341 0.0001968099 -0.0003465669
000160 6a 87 fe 39 f1 97 44 b8 ea 50 38 35 fe 03 00 39
       0.00048547547 -4.6871548e-05 6.8663087e-07 0.00012208518
000170 29 0d 49 39 3f f2 d4 b9 f4 90 82 b9 f6 66 8f 39
       0.00019173756 -0.00040616278 -0.0002490353 0.00027351797
000180 19 7f 2b b9 7f fd 98 37 cc ff 60 b8 a9 5b 2d b9
       -0.00016355178 1.8237855e-05 -5.364399e-05 -0.00016532712
000190 1c da 47 39 0e 8f 05 3a a4 1d 99 b9 53 fd f1 39
       0.00019059371 0.0005094864 -0.00029204518 0.00046155843
0001a0 b8 1f db 39 c8 3c 30 b9 e5 c2 a1 39 12 81 1c b9
       0.00041794567 -0.00016807311 0.0003085352 -0.00014925402
0001b0 8a c4 b0 39 50 cc 12 ba 04 db 17 39 ac a1 1c 3a
       0.0003371577 -0.0005599903 0.00014482072 0.0005975019
0001c0 3a 51 25 ba ab ca c5 37 5a 87 84 39 0c 06 07 39
       -0.0006306354 2.3578605e-05 0.00025277847 0.00012876856
0001d0 b7 15 11 ba 74 85 69 b9 10 c4 aa b8 04 34 b7 b9
       -0.0005534547 -0.00022270327 -8.142751e-05 -0.00034943235
0001e0 b7 3d 9f 39 91 88 a9 39 4e 0c 12 ba 66 da 1d 3a
       0.00030372824 0.00032335942 -0.00055712915 0.00060216186
0001f0 55 e4 3f b9 6f 0a e0 39 13 50 1a 3a 24 98 7a b8
       -0.0001830024 0.00042732383 0.0005886566 -5.9746337e-05
000200 b9 d6 bd b9 7c a2 df 39 40 3f 13 ba 94 87 a7 b8
       -0.0003620887 0.00042654935 -0.000561703 -7.988434e-05
000210 f4 d5 ce 39 4c 25 95 39 b4 2e 10 39 18 1b 6e b9
       0.0003945079 0.00028447283 0.00013750308 -0.00022707542
000220 e8 2b 78 39 42 98 9f b9 9b 0f dd 39 b2 db 1b ba
       0.0002366748 -0.00030440284 0.00042164032 -0.0005945518
000230 85 21 5e b8 8d b2 95 39 6f 5e e6 39 22 27 f9 38
       -5.2960142e-05 0.00028552525 0.00043939377 0.00011880534
000240 d8 e0 de b8 c9 be 79 b9 cd f3 c2 39 f6 18 b4 b8
       -0.00010627665 -0.00023817563 0.0003718421 -8.587718e-05
000250 9d 03 27 b9 b5 54 9b b9 cf 9d 85 b9 2e e9 3a b8
       -0.00015927707 -0.00029627015 -0.00025485313 -4.456302e-05
000260 b9 5d b7 b9 e0 79 05 38 80 12 d3 b9 ce aa 99 b9
       -0.0003497431 3.1823176e-05 -0.0004025884 -0.00029309693
000270 c2 5f 91 b9 a7 44 ac 39 3c b6 e2 39 e9 3c aa b9
       -0.000277279 0.00032857546 0.00043241854 -0.00032470308
000280 58 9f 31 b9 07 fc 21 39 90 f3 0a ba 19 42 3f 39
       -0.00016939396 0.00015448044 -0.0005300576 0.00018239803
000290 40 46 9c b9 99 e9 92 b9 88 87 08 3a e9 eb 0b 39
       -0.0002980698 -0.00028021334 0.0005208184 0.00013343956
0002a0 29 13 d0 b9 94 33 08 3a 9f 1b 6b b8 d2 fd 8a b9
       -0.00039687127 0.0005195674 -5.605409e-05 -0.00026510522
0002b0 84 1c e9 b9 2f 8b 1c ba c0 62 6f 39 37 05 fe b9
       -0.0004446247 -0.00059716677 0.00022829603 -0.0004845054
0002c0 d9 3b cf 39 13 54 15 38 ed ca 0a b8 b8 cd e9 b9
       0.00039526707 3.560267e-05 -3.3090753e-05 -0.00044594496
0002d0 e0 c7 bc 39 7d b9 9c b8 71 8e e8 38 13 07 b1 b9
       0.00036007073 -7.4732096e-05 0.00011089154 -0.00033765342
0002e0 34 26 92 39 e9 10 6a 39 31 86 10 38 ef ba c1 39
       0.00027875754 0.00022322279 3.445725e-05 0.00036951105
0002f0 f1 9d 2c 39 8b a2 56 b8 3b 93 d6 38 d1 e4 be 39
       0.00016462036 -5.1172956e-05 0.00010231739 0.00036410106
000300 af d0 09 ba 40 fc a0 39 7f 33 1d ba 5e e8 03 3a
       -0.00052572315 0.0003070552 -0.0005996748 0.0005031879
000310 61 68 04 ba 79 c2 25 ba 9c fc 0d ba f7 db 57 b8
       -0.0005050954 -0.0006323229 -0.0005416365 -5.1464853e-05
000320 2d bb 24 b8 8a 3f a8 39 97 8d 29 39 92 2f 21 39
       -3.9274968e-05 0.00032090797 0.00016169842 0.00015371878
000330 e0 3b 8c 37 6c e2 0a 39 68 e1 40 b9 2b cb ad 39
       1.6717182e-05 0.00013245054 -0.00018394517 0.00033148503
000340 bb 68 ac 38 c2 02 11 ba c9 9d d9 b7 a5 57 94 39
       8.221107e-05 -0.0005531722 -2.594189e-05 0.0002829406
000350 eb b9 d8 37 56 fb f9 39 00 be b7 39 63 59 1a b9
       2.5835781e-05 0.0004768024 0.0003504604 -0.00014719884
000360 6d 9f e3 b9 c3 e1 25 3a db db be 39 82 5f d0 39
       -0.00043415595 0.00063278916 0.0003640343 0.0003974401
000370 4a 34 18 3a 67 d0 a4 39 19 9c 93 39 95 5f d4 39
       0.00058061315 0.0003143579 0.00028154327 0.00040507005
000380 2f 75 96 b9 59 a8 54 39 35 d0 14 3a 6a 53 d8 b9
       -0.00028697538 0.0002028061 0.0005676777 -0.0004126088
000390 ae b7 d8 b9 1d ac d4 38 61 71 94 b8 08 d0 76 b9
       -0.00041335583 0.00010141006 -7.0783084e-05 -0.00023537886
0003a0 6a 8c 8c b9 d7 5c 54 39 d9 4f 8d b9 fd 89 f3 39
       -0.00026807497 0.00020252481 -0.00026953107 0.0004645138
0003b0 42 0e 09 ba d5 26 df b9 e6 e9 05 3a 0e 76 bb b9
       -0.000522826 -0.00042562807 0.0005108401 -0.00035755377
0003c0 25 2b ac b9 ff 1d 1d b9 02 0f 76 b9 6b a6 8b 39
       -0.00032838542 -0.00014983861 -0.00023465979 0.00026636137
0003d0 1f 98 be 39 6c 41 80 39 7a 55 29 ba 7e 5c 17 b8
       0.00036352963 0.00024462806 -0.00064595754 -3.6087346e-05
0003e0 c0 e7 04 b8 03 f5 ca b9 cd 9c 3f 39 7e f5 81 b9
       -3.1687086e-05 -0.0003871099 0.00018273592 -0.00024787703
0003f0 6a 1b ce b9 62 da e1 39 83 fc 44 37 01 67 85 39
       -0.00039311807 0.00043078052 1.1741303e-05 0.0002544448

sequential_3/conv2d_6/BiasAdd/ReadVariableOp f4 [32]
000000 dc 32 41 bc f0 9f 18 bd b9 73 e0 bc e6 1f 3d bd
       -0.011791911 -0.037261903 -0.02739893 -0.046173
000010 43 91 19 bc 47 0e cf bc 07 84 4a bc da c2 7e bd
       -0.009373012 -0.025275363 -0.012360579 -0.062197544
000020 e3 34 a1 bd 4a ed 68 bd 13 f5 10 bd f0 4c 6b 3b
       -0.078714155 -0.05686692 -0.03538997 0.0035904013
000030 29 24 9d bc ec 3a bd bc 09 e3 aa 3d 3d 30 31 3d
       -0.019182282 -0.023099385 0.08344085 0.043258894
000040 30 7d fe 3c 51 4d 84 bd 26 7d 91 bd d0 65 d3 bc
       0.031065553 -0.064600594 -0.07103948 -0.025805384
000050 a4 68 16 bd c3 3f d5 3d 87 e9 82 bb e1 34 cd bc
       -0.036720887 0.10412552 -0.003995124 -0.025049629
000060 03 b2 96 bc 4b db 88 bc 0b d8 67 3d d8 17 08 bc
       -0.01839543 -0.01670613 0.05660252 -0.008306466
000070 41 8d 33 bd c0 7a a2 bc 00 00 00 00 12 fa 8c bd
       -0.043835882 -0.019833922 0.0 -0.068836346

sequential_3/conv2d_7/BiasAdd/ReadVariableOp f4 [64]
000000 3c ce 4b bd cf b4 9d 3d 4b 59 20 bd 69 57 c5 3b
       -0.049757227 0.07700502 -0.039147656 0.006022383
000010 92 00 0e 3d b3 ec 41 bc 27 00 4a bd 18 6f 0d 3c
       0.034668513 -0.011836219 -0.04931655 0.008632444
000020 a4 11 c0 bc 79 58 23 bb 4f 90 be bb cc 4a 38 bd
       -0.023445912 -0.002492456 -0.005815543 -0.044993207
000030 53 09 9f bc 86 c3 8d bc 2d 50 65 3d 6b 3f 48 bd
       -0.019413626 -0.017305147 0.055984665 -0.048888605
000040 7b fe 82 bd 7e 0a 4f bd db 6a 91 3a cf ab 92 3d
       -0.063961945 -0.050547116 0.0011094467 0.07161676
000050 07 9b 4c 3d 3c 41 e6 bc f2 af d2 3c 09 b8 75 bc
       0.049952533 -0.028107278 0.025718663 -0.014997491
000060 93 af 86 bd a3 06 70 3d c3 dd 9d bc b6 3c ab bc
       -0.06576457 0.05860008 -0.019270783 -0.020902973
000070 29 e0 18 bd d4 e0 f1 3c b9 d5 b2 bc 5e 68 b8 3c
       -0.03732315 0.029526152 -0.021830427 0.022510704
000080 2b 15 10 bc bc f8 02 3c 35 74 e5 bc a8 27 23 bc
       -0.008794109 0.007993873 -0.028009513 -0.009958185
000090 24 01 c6 bc 3a 33 82 bd 92 66 94 bc 93 59 15 3d
       -0.024170466 -0.06357427 -0.018115316 0.036462378
0000a0 11 a9 a6 3d 18 dc 49 bc db 7d 95 3b 78 66 4e 3d
       0.081377156 -0.012320541 0.0045621223 0.05039069
0000b0 40 e3 01 bd d8 64 9d bc 83 4f 83 bd 92 31 f1 3b
       -0.031710863 -0.019213125 -0.0641165 0.0073606456
0000c0 88 76 68 3d 4c b7 93 bc 9d b3 5b 3b c2 69 11 bd
       0.056753665 -0.018031739 0.0033523806 -0.03550125
0000d0 bc 5b f7 3d a6 4c 23 3c be a9 77 bd b6 6b 9e bc
       0.12078044 0.009967005 -0.060464613 -0.01933847
0000e0 45 a6 06 bc e3 7f 87 3d 64 6d ce bc aa ac cf bc
       -0.008218353 0.06616189 -0.025198646 -0.025350887
0000f0 db 12 42 bd be 68 c9 3c 06 f8 e6 3b ac 54 87 bd
       -0.047381263 0.024586078 0.0070486097 -0.06607947

sequential_3/conv2d_8/BiasAdd/ReadVariableOp f4 [64]
000000 fb fd 96 3c 74 c5 8e 3d e6 07 11 3d 50 ed 2a 3d
       0.018431654 0.06971255 0.035407923 0.041730225
000010 26 38 8e bd 5f 9b 36 bd 54 6c 72 3d cf 2b ee bc
       -0.06944303 -0.044581767 0.05918534 -0.029073624
000020 73 1a 16 bc d8 6d ab bc e0 e1 01 3d 21 40 5a bd
       -0.009161579 -0.020926401 0.03170955 -0.053283814
000030 3e ad 97 3a 6a 03 6b 3c f8 dc 2d bd 79 f1 5a 3d
       0.0011572016 0.014344076 -0.04244706 0.053452943
000040 49 5f eb bc 76 09 ed 3c 5e 82 65 bc 7b b6 02 3c
       -0.028731959 0.028935175 -0.014008133 0.007978077
000050 53 7b f7 ba 07 4f e1 bc 11 94 fa bc 3f 31 9c bb
       -0.0018881358 -0.027503503 -0.030588182 -0.004766613
000060 26 88 fe bc 86 a2 8a 3d 4b 0d 12 bd 57 36 b6 3b
       -0.03107078 0.0676928 -0.03565721 0.005560677
000070 63 85 1a 3d 8f 56 c1 3a 98 d7 f6 bc 67 e1 38 bd
       0.037724864 0.0014750528 -0.0301321 -0.045136835
000080 0a ba 03 bc 8a 6b d5 bc 9f 7d 19 3c 04 1d 54 3c
       -0.008039961 -0.026052255 0.009368329 0.012946371
000090 99 95 43 bd ee 70 1c bd da bd 87 bc 82 4c 09 3b
       -0.04775009 -0.038193636 -0.01657002 0.0020950143
0000a0 e8 f7 21 bd a4 3a b0 bb e4 ed 66 3c f9 da 20 3d
       -0.039543062 -0.0053780843 0.0140948035 0.03927133
0000b0 78 ef e8 bb 6c 7f 60 bd 0e ee 8b bc d0 bd 1a bc
       -0.007108625 -0.05480902 -0.017081287 -0.009444669
0000c0 07 5c 85 bd b5 dc a5 bc cb 68 5b 3c 6b 89 54 3d
       -0.065116934 -0.020246843 0.013391684 0.051888864
0000d0 65 13 ee 3b d3 77 74 3c 62 4f b9 3c d3 b4 59 3c
       0.0072654956 0.014921146 0.02262086 0.013287741
0000e0 94 d0 a2 bc 5a ef d5 3c 8b 5d 35 bc 30 9e aa 3c
       -0.019874848 0.026115108 -0.011069666 0.020827383
0000f0 40 28 85 3c 00 97 9f bd e1 ae f3 bc 45 b9 1a bd
       0.016254544 -0.07792473 -0.029746475 -0.037774343

sequential_3/conv2d_9/BiasAdd/ReadVariableOp f4 [64]
000000 9e 02 c9 bb b6 1c 07 3c f5 89 e0 bc b0 c8 ee bb
       -0.006134345 0.008246591 -0.027409533 -0.0072871074
000010 cd f1 a6 3d 6e c0 0e bc 19 7e ea bb 85 da c9 bb
       0.081515886 -0.008712871 -0.0071561453 -0.0061600828
000020 40 f0 fc bc 16 42 9e 3d 4f 00 3e 3c dd e3 1d bc
       -0.030876279 0.07727449 0.011596753 -0.009636846
000030 50 68 e5 bb 03 20 c2 bc 3b 91 f7 3c 44 31 c9 bb
       -0.0070009604 -0.023696905 0.030220618 -0.006139906
000040 3b 56 c6 bc e6 8f ce bb 8e fa e2 bb 8e ca 8d 3d
       -0.02421104 -0.006303775 -0.006926841 0.069234
000050 4a 47 02 bd 5d cb 3f bd d6 33 fa bb b0 2e ed 38
       -0.031806268 -0.0468248 -0.007635574 0.00011309737
000060 78 19 d2 bc a9 9a 53 bd e6 32 d7 3c 1e 50 0e bd
       -0.02564691 -0.051661167 0.026269387 -0.034744374
000070 5a 3b e5 3b ff ef 08 bc 92 00 de 3c 56 0f 8a 3d
       0.0069956006 -0.008358001 0.027099881 0.06741206
000080 bc fa 6a 3c db 6a d6 bb 9e ad be bc 8c 4b 37 bc
       0.014342006 -0.0065435 -0.023276147 -0.011187445
000090 19 af 93 bc d1 1e dc ba c1 29 c2 bc 88 0b a0 3d
       -0.018027829 -0.0016793852 -0.02370155 0.078146994
0000a0 32 af 4c 3d d9 30 54 bc c3 92 8a bc 29 04 2f 3c
       0.049971767 -0.012951099 -0.016915685 0.010682144
0000b0 75 70 41 bd cd ce 99 bd d2 a7 61 3c 0b d5 aa 3d
       -0.047226388 -0.07510147 0.013772922 0.08341416
0000c0 ea 54 ea bc 0e f2 1b bd 93 bb 31 bc 53 ff f0 3c
       -0.028604943 -0.03807264 -0.010847944 0.029418623
0000d0 27 18 ff bc c5 f4 63 3c 7e 38 ac bc 6e 4e a5 bc
       -0.031139446 0.013913338 -0.021023031 -0.020179
0000e0 18 d7 88 bc 6f cf 37 3d 11 14 13 3d b3 71 99 3d
       -0.016704127 0.04487556 0.03590781 0.074923895
0000f0 54 d8 14 bc 63 f4 9e bc b4 3a de 3c a2 76 9a bc
       -0.00908478 -0.019403642 0.027127601 -0.018855397

sequential_3/conv2d_10/BiasAdd/ReadVariableOp f4 [64]
000000 be 3c 56 3d 0f 2f 37 bd 27 27 b7 bc 94 31 3d 3d
       0.052304022 -0.044722613 -0.022357536 0.04618986
000010 b0 cc 98 3c 3e 06 eb bc 0f 48 9d bd 4c 46 41 bd
       0.01865229 -0.0286895 -0.0767976 -0.04718618
000020 1b 98 e6 bc 1f dc 53 3b d2 a2 07 bd 1e 29 23 bd
       -0.028148701 0.0032327247 -0.033114262 -0.039834134
000030 f2 4b 05 bd b7 20 07 bc 93 9f b8 bc aa be 82 bd
       -0.03254313 -0.008247546 -0.022537028 -0.063840225
000040 a9 e0 f1 3d c9 bc ce 3d 0d 37 68 bc 75 db c1 3c
       0.11810429 0.10094602 -0.014173281 0.023664216
000050 99 d9 34 bd 14 3f d3 3d 91 a1 e7 3c b1 75 cd bc
       -0.04415283 0.103147656 0.028275283 -0.025080534
000060 9a 38 a0 bc ab 5f a2 3d 34 a9 0d 3c dd 5c bc 3d
       -0.01955824 0.079284035 0.008646298 0.091974
000070 c2 92 06 3d b5 4c 09 3e 1c b2 a8 bc 76 49 bc 3c
       0.032854803 0.13408168 -0.020592742 0.022984248
000080 cd 96 39 bd 9f b0 af bc 93 50 27 3c b5 43 4a bc
       -0.04530983 -0.021446524 0.0102120815 -0.012345244
000090 84 5c d0 bc 62 d7 1b bd d3 23 c7 3c 25 2b 37 bc
       -0.02543474 -0.038047202 0.024309075 -0.01117972
0000a0 ca ad c9 bc f5 83 ab 3d 79 79 6e bd 43 4d 42 3b
       -0.024619002 0.08374778 -0.058221314 0.0029648102
0000b0 76 49 13 bd 3f da 9f 3c 2f 0e e0 3c 49 df ab bc
       -0.03595873 0.019513248 0.027350513 -0.020980494
0000c0 c1 ae 1f bb 9d 86 2e bb 87 32 41 3e 70 ec 1b 3d
       -0.0024365636 -0.0026630529 0.18866931 0.03806728
0000d0 ed 1c 2e bc aa d5 8f bc 9b 0c 65 3d d5 13 ae bb
       -0.010627014 -0.017557938 0.055920225 -0.0053124228
0000e0 db 25 9b 3d 39 07 95 bc c7 30 c5 bc 23 09 93 bc
       0.0757558 -0.01819192 -0.02407111 -0.017948693
0000f0 c9 83 2b bd 77 eb 1d bc ea 4a f1 3c 6c 2b 92 3c
       -0.041873727 -0.009638659 0.029454667 0.01784297

sequential_3/conv2d_11/BiasAdd/ReadVariableOp f4 [64]
000000 06 36 26 3d 04 27 22 bd 24 b8 18 3d 52 8a 0f 3d
       0.040578865 -0.03958799 0.037284985 0.035044022
000010 07 9b a7 3c c4 a4 a6 3d 8e 3a 9f bb 70 5e 12 bd
       0.020459665 0.08136895 -0.004859275 -0.035734594
000020 b7 17 af 3c f5 5d b4 bc 8c 85 d3 bb 37 a5 47 bc
       0.021373613 -0.022017458 -0.006455129 -0.012185386
000030 65 18 68 bc 23 15 40 bc 1e 73 e8 bb 35 8d 7b 3c
       -0.014165972 -0.011723789 -0.007093801 0.015353491
000040 63 5a c6 bc 9f 4c 41 3c 4e 75 b4 3b 1b c5 22 3d
       -0.024213022 0.011798053 0.005507148 0.039738756
000050 d4 1e 8a 3d 46 27 25 bc 0c ec 98 bc 6f a2 f2 bb
       0.06744161 -0.010080164 -0.018667243 -0.0074046175
000060 9a c0 9d 3c 80 be 64 bd 5a 67 ca bc 81 5f a4 3d
       0.019256879 -0.055845737 -0.024707485 0.080260284
000070 36 26 85 3b 21 c0 36 bc 29 75 69 bc c6 44 69 3d
       0.004063393 -0.011154206 -0.014249125 0.056950353
000080 f2 b6 87 3d ae 53 59 bc ad a2 d3 bb c8 12 40 3c
       0.06626691 -0.01326458 -0.0064586014 0.011723228
000090 cc f9 bc bc 96 96 78 3d fd e9 bb 3b 93 de 83 3d
       -0.023068331 0.060690485 0.0057346807 0.06438937
0000a0 2c 37 37 bd ed 8f 89 bc 71 19 04 3d a1 04 ee 3c
       -0.04473035 -0.016792262 0.032250825 0.029054942
0000b0 38 bc d1 bb e3 35 8b ba 4a 14 58 bc 2c c4 96 3c
       -0.0064006113 -0.0010620918 -0.013188431 0.018404089
0000c0 ca 33 1a bd 4f 49 ff bb 83 3e be bc 45 8d 97 bc
       -0.037647046 -0.0077907215 -0.023223167 -0.01849998
0000d0 32 bd 15 bd a5 78 4d 3d 23 95 d9 bb 03 ca 8c bc
       -0.036557384 0.050163884 -0.006640093 -0.01718617
0000e0 00 de 8f bc 78 6a ff bc 6e 13 a1 3d e6 df e7 3c
       -0.017561913 -0.031178698 0.07865034 0.028305005
0000f0 c2 2a 31 3d 9c 80 51 3b b4 60 dd bb 01 35 63 3d
       0.043253668 0.0031967526 -0.0067559127 0.05547047

sequential_3/conv2d_7/Conv2D f4 [64, 3, 3, 32]
000000 97 f0 d8 3c f0 a6 74 bd a4 af ca bc 0c 59 09 bd
       0.02648191 -0.059729517 -0.024741955 -0.033532187
000010 92 0f 55 bd d6 09 fb 3c 38 66 51 bd 1d 07 49 3c
       -0.052016802 0.030644339 -0.051122874 0.012269762
000020 2d 9a 2a 3d ad d4 23 bd a1 22 2c 3d 11 7a d0 bc
       0.04165094 -0.039997745 0.042025212 -0.02544883
000030 a0 f0 0b 3d 89 3b 03 bd 21 17 98 bd 56 62 24 3c
       0.034165025 -0.0320392 -0.074262865 0.010033211
000040 ac 32 27 bd 4a 82 93 3d 07 86 3e 3d 5d 24 3b 3d
       -0.04081981 0.07202585 0.046514537 0.045688976
000050 78 f3 fe bb fb 81 88 bd 43 00 a9 bc 90 cb 9e bd
       -0.0077804886 -0.06665417 -0.020630008 -0.0775367
000060 47 84 0c bd bf d5 45 bc 82 b4 9a 3c 79 94 58 3d
       -0.034305837 -0.012074887 0.018884901 0.05287597
000070 aa bf 84 3d c4 b4 ea bd 89 2d a0 3d 20 0a 81 bd
       0.064818695 -0.114602596 0.07821185 -0.06300759
000080 28 bf 8d 3b 58 42 b8 3c 56 1e 3e bd ff 96 d4 bd
       0.004325766 0.022492573 -0.04641565 -0.10380363
000090 cb b4 cb bc 77 7c 13 3d 5d e7 7e 3d 12 ce 40 bd
       -0.024866482 0.03600737 0.062232364 -0.047071524
0000a0 da 32 0c 3d af 73 b8 3b 5a 13 c1 bd dc 31 d4 3c
       0.034228183 0.005629025 -0.09427519 0.025902681
0000b0 25 c6 ce 3c 01 34 07 bc 38 8e f5 3c b5 35 3c 3d
       0.025240967 -0.008252145 0.029975042 0.045949657
0000c0 6d e6 53 bd b0 47 43 3d a9 75 9e bd a1 dd 55 bd
       -0.051733423 0.04767579 -0.07737286 -0.052213315
0000d0 d2 06 46 3d da 9b 7a bd a6 e1 98 3d b3 f1 8a 3d
       0.048346348 -0.061183788 0.07464914 0.06784382
0000e0 5a 8d 10 3d 29 1e 03 3d 50 b9 b0 bd 72 1c ed 3c
       0.035291053 0.032011185 -0.086290956 0.028944228
0000f0 34 b5 f2 bc ae eb 8e bd 2c 72 82 bc 0a d1 a4 3d
       -0.02962742 -0.06978546 -0.015923582 0.080476835
000100 97 78 5b bd d3 c0 e2 3b 1f 99 b2 3c e1 ca a3 bc
       -0.0535818 0.006919959 0.02180153 -0.019994201
000110 86 b4 bc 3d ac 62 7e 3d eb 35 0b bd 00 61 85 bd
       0.092141196 0.06210582 -0.033986967 -0.06512642
000120 15 ef 82 bc 6e cf 50 3c 4e 1e 41 3c dd 02 64 3d
       -0.015983144 0.012744768 0.01178701 0.055666793
000130 92 c7 da bc 55 09 64 3d f8 34 76 bc 35 52 b8 bd
       -0.02670649 0.055672962 -0.015027277 -0.09000055
000140 90 ae 0c 3c 2c 51 a9 3c 31 53 81 3d 3c 38 04 ba
       0.008586541 0.020668589 0.063146956 -0.000504378
000150 82 7f 6c 3b 0d 83 ad bd bb 1c 85 bd 4d 81 68 bd
       0.0036086743 -0.084722616 -0.064996205 -0.056763936
000160 2a ad a0 bd 1f b2 40 3b 47 d6 1a 3d f4 4c 42 bd
       -0.078455284 0.0029403043 0.037802007 -0.04743667
000170 f1 ce db 3c 04 50 8c bd f1 9f 92 3d f4 cc 88 bd
       0.026832076 -0.06851199 0.07159413 -0.06679717
000180 ef f6 2f 3d 4b 22 86 3d a5 cc 1f bc ca 1b 85 bd
       0.042960104 0.065495096 -0.009753381 -0.06499441
000190 25 2b 61 3d 63 9a aa 3d 40 f6 65 bd 52 52 1f 3d
       0.054972786 0.08330228 -0.056143045 0.038896866
0001a0 c8 e4 16 3d 7d f6 a7 bd a8 9b b9 bd 7e a6 7a 3d
       0.036839277 -0.08201311 -0.09062892 0.061193936
0001b0 f2 96 9d bc dc ad 29 3d 2b e4 0b be ef 0d b1 bd
       -0.019237015 0.04142557 -0.13661258 -0.08645236
0001c0 51 e0 4c 3b 59 9c 3d 3d bd 9a 49 bd 82 c7 4c 3c
       0.0031261633 0.046291683 -0.049219836 0.012498738
0001d0 c5 a2 70 bd 47 28 24 be 15 c9 96 3c e3 d0 b8 bb
       -0.05874898 -0.1603099 0.01840643 -0.0056401356
0001e0 a2 6e 8b bc e5 93 9a 3d 8f 24 aa 3c 60 c3 75 3d
       -0.017020527 0.0754774 0.020769386 0.060000777
0001f0 38 dc 5b 3d e1 07 29 bd 13 0c a1 bd ce 7f 21 3d
       0.053676814 -0.04126728 -0.07863631 0.039428525
000200 7e 02 b9 bc d1 15 be bc b1 f0 6f bd d7 c7 8a bd
       -0.022584196 -0.023203762 -0.05857915 -0.06776398
000210 0f b1 1b 3c 46 65 63 bd d0 ab 13 3d 6c 63 76 bd
       0.009502663 -0.055516504 0.036052525 -0.06015341
000220 c5 09 c4 3d eb 1d 6d bc 09 80 2c bd f6 10 69 3d
       0.09572176 -0.014472465 -0.04211429 0.05690094
000230 6a 52 85 3d a3 a3 7f bd e7 03 04 be 9a ca 67 3d
       0.0650986 -0.062411916 -0.12892114 0.0565897
000240 3f 10 c0 3b 2a c6 42 bb 17 b1 42 3b 37 44 68 bd
       0.0058613117 -0.0029720166 0.0029707605 -0.05670568
000250 88 ed b4 3c f1 c5 02 be ab f2 96 3c 1c aa ae bc
       0.02208592 -0.12770821 0.01842626 -0.021321349
000260 f7 ec b8 bb 54 50 a3 3d 8b 70 ac bc 04 55 fa 3d
       -0.005643483 0.07974306 -0.021049758 0.12223247
000270 d8 97 fb bc 5c 14 de bd e0 0e 95 3c 86 8b 07 bd
       -0.030712053 -0.10843727 0.01819557 -0.033092044
000280 c8 b9 05 bd 3c cc dd 3b 3c 0d aa bd 49 90 81 bd
       -0.032647878 0.0067687314 -0.083033055 -0.06326348
000290 7a 2e 3e 3c 7d 5f 7d bd 44 52 a0 bd d5 8a 1c 3d
       0.011607761 -0.061858643 -0.07828191 0.038218338
0002a0 d9 33 2b 3c e3 61 03 3b 5b ea 09 3d 67 27 a3 bd
       0.010449373 0.0020047359 0.033670764 -0.079665
0002b0 6e 76 8b 3b 88 68 3a b8 9f 56 78 bd aa 59 90 bd
       0.0042560613 -4.4443208e-05 -0.060629483 -0.07048352
0002c0 a2 2e 95 bd e9 24 53 3d 6c b9 6f 3d 5c a3 3c bd
       -0.07284285 0.051548872 0.05852644 -0.04605423
0002d0 2c d0 38 3d 9b da 8c bd a1 a1 52 bd 5f 1a e3 3c
       0.045120403 -0.06877633 -0.051423673 0.027722536
0002e0 9a b6 47 3c c1 a9 7c 3d fd af 56 bc 08 83 d8 3d
       0.012189532 0.061685327 -0.013103482 0.10571867
0002f0 8b df 7c 3d 1f d1 a1 bd 06 82 13 bd 90 6b 5b 3d
       0.061736625 -0.07901215 -0.036012672 0.053569376
000300 1e 69 86 3d d2 11 5d 3c 65 96 08 bd be 92 2b bd
       0.06563018 0.013493018 -0.033346552 -0.04188799
000310 e6 56 b2 3d e0 81 cd 3c 67 99 65 3c c2 9d cc 3c
       0.08707981 0.025086343 0.014013625 0.024977569
000320 9e 47 e9 bc fb 7b 09 bd 4f 03 4e 3d 98 12 b4 3d
       -0.028476533 -0.033565503 0.050296124 0.08792609
000330 d8 5d a0 3d 5c 10 60 bd 06 ed c3 bd 22 8f 9b 3b
       0.07830399 -0.0547031 -0.09566693 0.0047472874
000340 e9 01 18 3d 87 5b b4 bc bb d4 11 bd e3 3b 35 bb
       0.037111197 -0.0220163 -0.035603266 -0.0027654103
000350 0f ca 88 3c ba 56 17 bd b4 3e c3 3b f2 be 9f 3d
       0.016697912 -0.036947943 0.0059584025 0.07800092
000360 ec 46 eb bc b2 d1 6d bd ac 50 56 bc db d1 bd bb
       -0.028720342 -0.05806131 -0.013080757 -0.005792839
000370 e5 d7 54 3d 23 fe 21 bd 2c 75 db 3c 06 f7 99 3d
       0.051963706 -0.039549004 0.02678927 0.07517819
000380 45 de 0c bd 73 b6 d9 bd 13 3c 30 3d 78 aa 42 bd
       -0.03439166 -0.106305026 0.04302604 -0.047525853
000390 9e c7 dd 3d bb 19 9e bc c1 b4 fd 3c c0 1d 55 3b
       0.108290896 -0.019299379 0.03096998 0.0032518953
0003a0 aa d8 c8 3c 13 cb 19 bd 54 5e a1 bd 82 9f ad bd
       0.024517376 -0.037547182 -0.0787932 -0.08477689
0003b0 d1 48 2f 3d 84 2f 8b bd 96 74 2a bd b6 79 8d bd
       0.042794053 -0.06796172 -0.04161509 -0.0690798
0003c0 ba 9f 92 bd f7 01 d5 bc d4 12 99 bd 15 0a ba 3d
       -0.07159372 -0.026001913 -0.07474294 0.09083954
0003d0 3c c2 b3 3d 94 5e c5 bc 7a c2 e8 3b fe 93 63 bd
       0.08777282 -0.02409295 0.0071032615 -0.05556106
0003e0 16 94 c7 bc b7 ad 3a bd ca eb 8e bd 81 06 a0 3d
       -0.024362605 -0.045575824 -0.06978567 0.078137405
0003f0 90 d2 84 bd 4d 2e 26 be e1 71 a9 3d 01 d5 17 bd
       -0.06485474 -0.162286 0.08273674 -0.03706837

sequential_3/conv2d_8/Conv2D f4 [64, 3, 3, 64]
000000 b4 b6 61 3d 8f 84 fd ba 89 94 d9 3c a8 82 30 bd
       0.05510588 -0.0019341874 0.026560085 -0.043093354
000010 11 03 2c 3d 48 8c 03 bd cc b2 93 3c 16 72 f4 bd
       0.04199511 -0.032116205 0.018029593 -0.11935823
000020 f7 fd db 3d 27 c0 72 3d 8d 75 8b bd 15 d7 37 3c
       0.10741799 0.059265282 -0.068095304 0.011220713
000030 bf ac b1 bd 3d e3 89 bd 74 7c 65 bc 69 68 0d bd
       -0.08675527 -0.067327954 -0.014006723 -0.0345234
000040 f7 b8 92 bd 55 60 65 3d e5 d1 1b be e3 3c 80 3c
       -0.071641855 0.056000073 -0.15216787 0.015654033
000050 23 c4 12 bd d3 80 d2 bc b7 1e 0a be 36 9b 48 bd
       -0.03583158 -0.025696194 -0.1348828 -0.048976146
000060 9d 1d c2 bb ee 3b 22 3c c6 b3 36 3d a8 1d 88 3d
       -0.0059239403 0.009901984 0.04460504 0.066462815
000070 78 45 c2 bd de 51 7c 3d 6d 9f 8d 3d 02 28 71 bd
       -0.09485906 0.061601512 0.06915174 -0.058876045
000080 d7 70 20 bd 2b 25 db 3c 78 45 1d bc ec b3 9f bd
       -0.039170112 0.026751122 -0.009599082 -0.07797989
000090 40 f3 5e bd 7f c7 93 3d 23 0e 22 bd 0a 1d 91 bd
       -0.0544312 0.07215785 -0.039564263 -0.07085617
0000a0 3b 5f 23 3d a1 b4 3f 3d ce 37 4d bd 0d 21 bd bd
       0.03988574 0.04680312 -0.050102048 -0.092348196
0000b0 de 07 cd bc 99 42 bc 3c d9 c9 93 bc db 81 ea 3a
       -0.025028165 0.022980975 -0.018040584 0.0017891483
0000c0 96 f1 c6 3d 7a ff 4d 3c 55 f4 88 3d 86 24 99 3d
       0.097140476 0.012573117 0.06687228 0.074776694
0000d0 29 fc 18 3d 57 f9 e0 3c bd c8 38 3d 84 d2 2b bd
       0.037349854 0.027462645 0.045113314 -0.04194881
0000e0 b5 11 99 bc 86 94 ce 3c cc fc cc bc be 93 b8 3c
       -0.018685201 0.025217306 -0.025022887 0.022531386
0000f0 27 b5 70 3c 26 e8 ff bc 49 e5 5e bc 54 3c 6d bc
       0.014691628 -0.031238627 -0.0136044705 -0.014479715
000100 87 6f 87 bb 6a d9 a3 3a cc 8e bb bc 06 26 05 bd
       -0.004133168 0.0012500708 -0.02289524 -0.032506965
000110 d7 07 b2 3d 01 f1 36 3d eb 32 80 3d 79 47 53 be
       0.086929016 0.044663433 0.06259712 -0.20632733
000120 aa 51 c7 3d 0c 13 de 3d fc 10 af 3c 12 85 e9 bc
       0.09732373 0.10843477 0.021370403 -0.028505836
000130 54 14 3e bd 47 fe cc 3c 0a dd 3f 3d 4e 4d 99 bd
       -0.046406105 0.025023593 0.04684166 -0.07485448
000140 3a 5b 6e 3b f0 02 a4 bc eb 32 56 be 57 71 ed bc
       0.0036370293 -0.020020932 -0.20917861 -0.028984709
000150 36 eb 7a 3c c3 da f8 bb 75 b4 5e bd 48 2f 32 bd
       0.015314868 -0.007594438 -0.054371316 -0.043502122
000160 e7 e0 58 3d d0 58 ab 3b 29 ee 88 3d e5 9a 3b 3d
       0.05294886 0.005229093 0.066860504 0.045802016
000170 9e 43 22 bd 01 d9 8e bd 91 c1 9b 3b ae 7b cf bd
       -0.039615266 -0.06974984 0.0047532995 -0.10131012
000180 18 e9 0d 3d 48 dd a7 bc 4b a8 85 bd d0 a9 f0 bd
       0.034646124 -0.020491257 -0.0652624 -0.11751139
000190 4c 35 c5 bd 9a ed d6 ba af 94 80 bd 15 30 3a bc
       -0.09629306 -0.0016397715 -0.06278359 -0.011364003
0001a0 79 06 ad 3d 60 ab 37 3d ec de 0e 3d 63 02 b7 bc
       0.084485 0.04484117 0.034880564 -0.022340005
0001b0 65 a0 9b 3d e9 37 49 bd 5b ab ce 3d f4 c8 33 bd
       0.07598952 -0.049125586 0.10091277 -0.043892816
0001c0 15 b4 f6 3c 79 f4 40 bc f6 b1 e7 bc a7 a3 f1 3d
       0.030115167 -0.011777037 -0.0282831 0.11798792
0001d0 84 11 80 bd 7c 1c ba 39 e6 c3 ea 3b 60 95 1b bc
       -0.06253341 0.00035497907 0.007164466 -0.009496063
0001e0 d3 19 10 3c 2b 78 35 bd e3 c9 17 3d c0 9a 13 3d
       0.0087952195 -0.044304054 0.03705777 0.036036253
0001f0 91 b9 8f bc be 3b 86 3d 5f 0b 26 3d 02 b5 9f 3d
       -0.01754454 0.06554364 0.040538188 0.077981964
000200 95 86 c3 bc 8d 26 03 3d 5d 34 ae bc e5 a1 20 bd
       -0.023867885 0.032019187 -0.021265203 -0.039216895
000210 2b f4 ad 3d ec c2 fb ba d9 5b 19 bb 49 bf a0 be
       0.08493837 -0.0019207872 -0.0023400693 -0.3139594
000220 a6 e1 21 bb c0 d5 89 3d 38 d2 20 bd 9b ae cb 3c
       -0.0024701147 0.06730223 -0.03926298 0.024863532
000230 49 e0 51 bd 97 a7 0e bd c0 30 27 3d dc 49 10 3d
       -0.051239286 -0.034827795 0.040817976 0.035226688
000240 92 82 04 3d e4 e5 6d bd 21 dc ff bd de 53 65 3d
       0.032351084 -0.05808057 -0.12493158 0.055988185
000250 74 ec 97 bd 58 20 6f bd b3 57 5c be ea 47 13 3b
       -0.07418147 -0.058380455 -0.2151783 0.0022473284
000260 8a 32 03 ba cc b0 32 bc f9 06 5e bd 14 67 2c bd
       -0.00050047843 -0.0109064095 -0.05420587 -0.04209049
000270 21 b2 23 3c 82 7f 80 bc 23 03 d4 3c 06 66 c8 bc
       0.0099912 -0.0156858 0.025880402 -0.024462711
000280 d8 36 df bc 83 b0 aa 3d b4 d3 78 bc a9 ea 8a bd
       -0.027247831 0.08334448 -0.015187193 -0.06783039
000290 70 cf 1b 3c 2f a9 84 3d 4a 57 10 3d 5d 25 0d bd
       0.009509906 0.06477582 0.035239495 -0.03445946
0002a0 1d aa 9d 3d 70 97 40 3d 98 81 fe 3c bc 6b 1e bd
       0.07698462 0.047019422 0.031067654 -0.038676962
0002b0 eb fd 59 3d a8 65 57 bd 1e d4 4d 3b 7e 93 47 3c
       0.05322067 -0.05258718 0.003140695 0.012181161
0002c0 4f 20 ac 3d 17 29 8a 3c 61 28 54 bd 46 85 ba 3c
       0.084046 0.016865296 -0.05179632 0.022768628
0002d0 60 11 a6 3b a1 73 50 3d cb ed 7e 3d c0 af b2 3a
       0.005067989 0.050891522 0.062238496 0.00136327
0002e0 71 b1 82 bd 12 aa 72 3d ce 1d 7b bd d9 34 be 3c
       -0.063815005 0.059244223 -0.06130772 0.02321856
0002f0 2e 7f 98 3d 6d 83 54 bc 0f ca a8 bc e0 55 69 3c
       0.074461326 -0.0129707875 -0.020604162 0.014241666
000300 db 65 cf bb da 98 2f 3d 04 b0 09 bd 82 ed 34 3d
       -0.006329281 0.04287038 -0.033615127 0.044171818
000310 e7 0b 7b 3d aa f8 ec 3c fb 43 31 3d 80 9f 40 be
       0.061290648 0.028927166 0.04327772 -0.18810844
000320 d7 7c 36 3c 82 8d 99 3d 0f 8f 52 bd b2 15 c6 bc
       0.011138163 0.074976936 -0.051405963 -0.024180267
000330 f3 27 56 3d 6f 40 31 bd 8a 46 55 bd f1 55 6a 3d
       0.052284192 -0.04327434 -0.052069224 0.057210866
000340 bb e8 37 bd 2a 66 f8 bc 44 05 ca bd cf 91 30 bd
       -0.044899683 -0.030322153 -0.098642856 -0.043107804
000350 70 49 14 bc 91 66 cc 3c 92 54 ac 3b a7 78 87 bd
       -0.009050712 0.024951251 0.005259105 -0.066148095
000360 37 a9 6d bd d5 2e 31 bc 1b fb 3e 3d ea e2 85 3d
       -0.058022704 -0.010814388 0.04662619 0.06537421
000370 85 0a 40 3c 50 9d 8e bc 4a ca 84 bd 68 b5 95 bd
       0.011721258 -0.017408997 -0.06483896 -0.07309991
000380 e7 ce 95 bc c7 f0 58 bd 48 4a 80 3d 73 d6 3b 3b
       -0.018287135 -0.052964 0.06264168 0.0028661757
000390 e5 a6 43 bd 0c aa ef 3b ec d2 2d 3d 3e 30 8b bd
       -0.047766585 0.0073139723 0.04243748 -0.06796311
0003a0 85 aa f7 3c 57 75 0e 3d d7 52 83 bd 41 46 5a 3c
       0.030232677 0.034779873 -0.06412285 0.013322414
0003b0 39 d7 93 3c ac 45 22 3c 91 9d 3f bd 78 45 00 3d
       0.018046962 0.009904306 -0.046781126 0.03131625
0003c0 5b 6c 5c 3c 6e 1b db 3c d8 96 91 bd 38 e4 18 ba
       0.013453568 0.026746478 -0.07108849 -0.0005832347
0003d0 17 10 a9 bd d2 07 27 3d 57 8f 5c 3c 55 bd 7e 3c
       -0.08255022 0.040778942 0.013461909 0.01554807
0003e0 0d 4b 0f 3c 5d 19 c4 bd e4 b6 80 3d 37 38 ec 3c
       0.008745921 -0.0957515 0.062848836 0.0288354
0003f0 d3 b2 7a bc 04 f4 5d 3d 72 ad 2a bd 9b 46 82 bd
       -0.015301424 0.05418779 -0.041669317 -0.06361123

sequential_3/conv2d_9/Conv2D f4 [64, 3, 3, 64]
000000 a9 88 ac bc 46 cc 9e ba 35 5e be 3c 31 6d 88 3c
       -0.021061258 -0.0012115322 0.02323828 0.016653629
000010 21 22 52 bd ac ba 95 3a 35 ec 55 bd d3 19 43 bd
       -0.05130208 0.001142343 -0.052227218 -0.04763205
000020 c7 df 87 bd e9 42 04 bc 75 b2 3c 3d cc 2b 6c bd
       -0.06634479 -0.008072593 0.046068627 -0.057658955
000030 c4 1f 99 3b 7e 7c 0d 3c f9 69 4a bd 88 ac a7 3c
       0.004672976 0.008635638 -0.04941747 0.020468011
000040 e0 e4 51 bd bb f8 3c bc 2e 8f 85 bd 6e 32 73 bd
       -0.051243663 -0.011533911 -0.0652145 -0.059374265
000050 a4 f3 e7 bc f0 ca 0d 3c 4b bf 8c bd 6b 16 cd 3c
       -0.02831442 0.008654341 -0.06872424 0.025035104
000060 7f 8d 89 bc dd 70 26 3b 87 e4 d4 3c 79 0d 07 bd
       -0.016791103 0.0025396862 0.025987877 -0.032971833
000070 5f 08 65 3d f0 67 01 bd 83 f5 0d bc 3f 82 ef bc
       0.055916186 -0.031593263 -0.008664492 -0.02923691
000080 7c da c4 bc c0 cc 03 3d 42 a5 0d bd d6 e3 3c bd
       -0.024029963 0.032177687 -0.03458143 -0.04611572
000090 8e e9 70 bd 2c b3 5e 3c b0 cf 6c bd 25 f7 88 3c
       -0.058816485 0.013592523 -0.057815254 0.01671941
0000a0 95 13 31 bc 6d d0 0d 3d 27 cd 50 bc a7 74 4c 3d
       -0.010807891 0.0346226 -0.012744225 0.049915936
0000b0 5a 60 8b bb 9c b7 ca bc c4 1d a9 bb a0 4e 78 3d
       -0.0042534294 -0.024745755 -0.005161019 0.060621858
0000c0 a2 00 91 bb ea 33 db 3c ea 22 b4 bc 78 f3 64 3d
       -0.0044251243 0.026758153 -0.021989305 0.055896252
0000d0 1d f4 92 bd 64 3a 3d bd 59 c3 2c bd b1 0d 51 bd
       -0.07175467 -0.046198264 -0.042178486 -0.051038448
0000e0 1e 45 20 bd 6a 1e 0d bd 31 12 0c bc a3 9d 8a bd
       -0.039128415 -0.034452833 -0.008549259 -0.06768348
0000f0 9b f2 24 3d 20 06 38 3d 30 16 89 bc 61 81 8c bd
       0.04027043 0.044927716 -0.016734213 -0.068606146
000100 f4 bf a0 bd 67 d7 21 bd 8a 10 6e bc 4d b3 4f 3d
       -0.07849112 -0.039512064 -0.01453031 0.050708104
000110 10 28 59 3d da 15 7f 3c 93 0d 34 bd 9f cc ac bb
       0.053016722 0.015569175 -0.043958258 -0.005273416
000120 00 78 68 3c cf b8 0e 3d fe 69 37 3d 55 fe 47 bd
       0.0141887665 0.034844216 0.044778816 -0.048826534
000130 48 6e 19 bd 56 b3 bd bc 26 4f da bc 29 ab 11 3c
       -0.037458688 -0.023156803 -0.026649069 0.008890905
000140 ae 84 82 bd 4a 73 b4 3b ba be 19 bd 55 09 f5 3c
       -0.06372963 0.0055069076 -0.037535407 0.029911676
000150 f0 2a ee bc 00 17 3b 3b b5 d2 77 3d 60 98 1b 3d
       -0.029073209 0.0028547645 0.06050368 0.037987113
000160 ca ec 6e bd 7d 74 87 bd 79 47 a4 bd 59 8f 13 3d
       -0.05833129 -0.06614015 -0.08021445 0.03602538
000170 e4 8e d5 bc 91 fa 3e bd 9c 51 58 3b 91 e5 01 3d
       -0.026069112 -0.046625677 0.0033007627 0.031713072
000180 a4 ff 04 bd 52 fe 28 3b 1d 18 32 3d 2e d8 3a bd
       -0.03247036 0.0025786352 0.043480027 -0.04561632
000190 0a d8 f1 bc 49 75 10 bd b6 75 8c bd d0 c1 39 3c
       -0.02952196 -0.0352681 -0.06858389 0.011337712
0001a0 07 8f cc bc c0 ba ab bc 12 3c 61 3d cd 43 71 bd
       -0.024970545 -0.020963073 0.05498893 -0.05890255
0001b0 d8 7c 9d bb 14 c2 75 3d b0 19 16 bd 5f 5c 21 3c
       -0.0048061423 0.05999954 -0.03664559 0.009848683
0001c0 f8 12 89 3d b2 db fe bc 1e 26 7a bd b7 4e f5 3c
       0.06693071 -0.031110618 -0.061071508 0.02994476
0001d0 75 ec 74 3d 39 e6 bc 3c 4b 34 2f bc ca 4d 7a bd
       0.059795815 0.023058997 -0.01069362 -0.06110934
0001e0 80 1b 48 bc 0e 8b 0d bd c0 3b 6e bd b8 a4 a0 bc
       -0.012213588 -0.03455644 -0.05816245 -0.019609794
0001f0 58 9c 80 3b 67 5d 1d 3d 3e 9c 5a bb d5 84 17 3d
       0.0039248876 0.038419154 -0.0033357288 0.036991913
000200 05 4d 9c 3c 2c c8 71 bd 79 a3 3c 3c e6 34 71 3d
       0.019079695 -0.05902879 0.011513584 0.05888834
000210 86 07 17 3c 73 e0 61 bd ca 3e 05 bd 37 f7 a5 b7
       0.009218102 -0.055145692 -0.032530583 -1.9784651e-05
000220 22 e8 78 bd 2c 6c 97 bd 93 c6 7a bc f9 cb 28 3d
       -0.060768254 -0.07393679 -0.015306133 0.04121015
000230 87 ff 6c bc 28 cc 28 3c fa ec 49 bd 87 93 f2 3c
       -0.014465219 0.010302581 -0.049298264 0.029611362
000240 34 6a 14 bd 81 31 7c 3c 86 5e 63 bd 8b 73 c1 3c
       -0.036234096 0.015392662 -0.055510066 0.023614665
000250 95 eb ad bc fc 49 3e 3d 7e 84 86 3b 52 0a 88 bc
       -0.021230498 0.046457276 0.00410515 -0.016606484
000260 f4 19 c3 bc b4 3b c2 3c 2f 5c 8b 3c 4b d4 9d bd
       -0.023816086 0.02371011 0.01701173 -0.07706507
000270 69 7c c6 bc 09 52 fc 3c e0 3a 62 bd bb c7 1c 3c
       -0.024229245 0.030800836 -0.05523193 0.009569104
000280 d6 88 56 bc 0a a2 f1 3b 55 df 7a bd 3c 97 74 bd
       -0.013094148 0.007374053 -0.061248142 -0.05971454
000290 8b a1 35 bd 16 6d 8e bd 8b 0f f0 bc 40 dc 9c bc
       -0.044343513 -0.069544 -0.029304286 -0.019147992
0002a0 e3 66 bb bc 8a 98 9c bc 8e be 65 bd 09 a4 aa bb
       -0.022876209 -0.019115705 -0.05608993 -0.005207543
0002b0 bf e7 41 3d ff 62 3b 3b b0 11 28 bd a8 cf b0 3c
       0.04734015 0.0028592942 -0.041032493 0.021583393
0002c0 6b d2 a6 bd a9 87 21 3d 05 0e 49 bd 82 12 4a bd
       -0.08145603 0.039436016 -0.049085636 -0.049334057
0002d0 36 55 87 3d 21 ac 21 3c d0 f1 d0 bb ec be 33 3d
       0.066080496 0.009867699 -0.0063764825 0.04388325
0002e0 ba d8 76 3c e9 40 98 bd 52 16 75 bd dc a9 45 3d
       0.01506632 -0.07434256 -0.05983574 0.048257694
0002f0 ba 40 46 3d 66 86 61 bd 27 37 9d ba b9 8a e0 bc
       0.04840157 -0.055059813 -0.0011994586 -0.027409898
000300 5d 12 3f 3c 1c 39 c9 bb 5d 58 82 3d 36 9e e1 bc
       0.011662093 -0.006140841 0.0636451 -0.027541261
000310 ec f3 2b bd a6 01 93 bb 47 4f 80 bc 8c a6 6a bd
       -0.04198067 -0.0044862805 -0.015662802 -0.057287738
000320 39 37 a9 bc 56 a1 d6 3c 9d 1b ea 3b c3 86 2e 3d
       -0.020656215 0.026199978 0.007144405 0.042608988
000330 6d 65 d6 3c d9 f5 20 bd 43 16 ea 3b 25 19 0d 3c
       0.02617141 -0.03929696 0.007143767 0.008611952
000340 49 c0 c8 bc ab e5 95 bd 74 27 03 3d 35 cf 69 3d
       -0.024505751 -0.07319196 0.032020047 0.057082374
000350 cc 79 2b 3d e9 f3 53 3d 83 69 99 bc 50 61 2d 3d
       0.0418642 0.051746283 -0.01872707 0.042329133
000360 38 95 13 bd 54 c4 77 3d 5e 9d 19 3c 27 b9 27 3d
       -0.036030978 0.060489967 0.009375898 0.04094806
000370 a0 6c 7f 3a 91 41 84 3c 59 bc 79 3d 29 eb b5 bd
       0.00097436644 0.016144546 0.060970638 -0.08882744
000380 0c 43 8a 3a e4 3b 70 3d 98 f6 5e bd 4a 17 20 3c
       0.0010548546 0.058650866 -0.05443439 0.009771178
000390 7d e8 d9 bb c7 6e 1e bb 51 1c 08 3d 2d 3f ab bd
       -0.006650029 -0.0024174915 0.03323013 -0.08361659
0003a0 f9 0e 00 3c f0 71 d0 bc 2f ec 86 3d b3 16 ed 3c
       0.00781607 -0.025444955 0.06588017 0.028941488
0003b0 40 36 46 3d 09 dd a5 3c 25 57 72 3d 9c 1d 68 3d
       0.04839158 0.020247 0.05916514 0.056668863
0003c0 40 1b 2b bc 2f 93 7b 3d 0f 28 ca bc 75 fa 9b bd
       -0.010443509 0.061419662 -0.024677305 -0.0761613
0003d0 42 98 74 bc a4 16 36 bc e8 1b b0 3c 50 ee 98 3c
       -0.014928879 -0.011113796 0.021497682 0.018668324
0003e0 91 74 a5 3c a6 4b 84 3d 92 df dc bc 4a eb 45 bd
       0.020197185 0.06459741 -0.026962075 -0.048320092
0003f0 e3 9a a6 bc 51 ba 1e bc fa 49 1d bc 53 cc 97 bc
       -0.020337528 -0.009687976 -0.009600157 -0.018530047

sequential_3/conv2d_10/Conv2D f4 [64, 3, 3, 64]
000000 c1 25 3b bd db e5 64 3d e2 7c 3b 3d 52 2e 35 bd
       -0.0456903 0.05588327 0.045773394 -0.044233628
000010 fa f8 39 3d 63 e0 74 bd d0 db 58 bd 7d b1 b6 bc
       0.04540346 -0.059784304 -0.052944005 -0.02230143
000020 9a 74 00 bd db 00 27 3d 3e 46 d2 bd 02 21 2b 3d
       -0.0313612 0.0407723 -0.10267304 0.041779526
000030 58 16 71 3c a5 5d 9f bc 86 36 c1 bd e3 e1 f1 3c
       0.0147148 -0.019453833 -0.09434228 0.029526656
000040 ad ef d7 3a 7c c4 80 3b d3 69 0e bc 21 a6 79 3d
       0.0016474627 0.0039296728 -0.008692223 0.06094945
000050 77 25 56 3d 0a a8 59 3d 0d 9f 7b 3b 35 48 01 3e
       0.052281823 0.05313877 0.0038394362 0.12625201
000060 c9 b8 1c bd 1c 9c 2d bc 18 4f 02 3d d3 ef f4 3c
       -0.038262162 -0.010596301 0.03181371 0.029899513
000070 82 c0 18 bd 0a 13 5c 3d 16 9c 57 bd 10 89 66 3b
       -0.037292965 0.053729095 -0.05263909 0.003517691
000080 35 7e af bb 9b 3f 85 3d 79 d9 91 3d 0a 5b 89 3d
       -0.005355621 0.065062724 0.07121558 0.067068174
000090 70 6d 92 bd 12 1f 9b 3d 6d 94 78 bc 0b 08 02 3d
       -0.0714978 0.075742856 -0.015172106 0.03174595
0000a0 08 8f 3a 3d 29 f9 9f 3b d4 02 1c bd 66 25 8b 3c
       0.04554656 0.004881997 -0.038088635 0.016985606
0000b0 66 b8 b5 bd 75 c5 15 bc c8 34 31 3d 97 b6 54 bd
       -0.08873062 -0.009141316 0.043263227 -0.051931944
0000c0 a3 f5 af 3c a1 4c b6 bc e8 cc b4 3b 96 04 56 bd
       0.021479433 -0.022253336 0.005517591 -0.052250467
0000d0 be 4a aa 3c eb 91 dc bc 85 c2 d2 bd c2 31 c7 bb
       0.020787593 -0.026925048 -0.10291008 -0.0060789296
0000e0 56 c4 1f bd 19 d3 bb 3d e2 94 76 3d b2 b2 e1 bc
       -0.0390056 0.09171123 0.06020058 -0.027551029
0000f0 b3 ee f5 3c 6a c2 3a 3d 58 64 75 3d b7 56 17 bd
       0.030021047 0.045595564 0.05991015 -0.036947932
000100 2e 64 ae bc ac 7c 3a bd 7d 28 54 bb a9 b1 25 bd
       -0.021288004 -0.045529053 -0.0032372766 -0.040452633
000110 3c 61 bd bd 88 32 30 3c 6d 6f 0f 3d cf 6f 3a 3c
       -0.092470616 0.010754235 0.035018373 0.011379196
000120 3a 5f 41 3d 2b 93 83 bc ae ae a5 bd c3 62 c0 bb
       0.047209956 -0.016061386 -0.08089958 -0.0058711483
000130 5d ff a7 bb 8a 4a 87 3d ba 5d 46 bd f9 b8 06 bd
       -0.005126877 0.06606014 -0.04842923 -0.032891247
000140 6d 04 61 bd 8d e4 37 3d 7e 08 d4 3c f9 37 5f bd
       -0.05493586 0.044895697 0.025882956 -0.05449674
000150 79 9e 9d 3d e3 6e 70 3c ff 07 35 bd 17 66 50 bb
       0.07696242 0.014674875 -0.04419708 -0.0031799132
000160 a1 e1 54 3d 10 b7 89 bd 61 b6 01 bd e2 87 98 3d
       0.05197299 -0.067243695 -0.03166807 0.074477926
000170 a7 64 7f bd 1b 69 9b bd f0 be 53 bc d0 c3 69 bd
       -0.06235185 -0.07588407 -0.012923941 -0.057071507
000180 40 b6 56 bc f0 8e 9e bd a6 39 b1 3c e0 b1 19 bc
       -0.013104975 -0.07742107 0.021633934 -0.009380788
000190 18 fe 3f 3d 9e 8b 82 39 e4 12 3a bd 09 3e e8 bc
       0.046873182 0.00024899555 -0.04542817 -0.028349893
0001a0 86 52 94 bd 6c 07 fc bc 2f af e8 3b 7f 6d c3 bc
       -0.072423026 -0.030765258 0.0071009616 -0.023855923
0001b0 b7 f9 bb bd d7 23 49 3c 41 17 8b 3b 2c b9 7e bc
       -0.09178489 0.012276611 0.0042447154 -0.015547078
0001c0 26 78 00 bc 86 22 0b bd f6 00 3d bd 33 51 d4 bd
       -0.007841146 -0.03396847 -0.046143495 -0.1036705
0001d0 7e dc 6a 3d 16 71 ca bc 9e b6 c0 3c 27 4c 6f 3d
       0.057339184 -0.024712127 0.023524579 0.058422234
0001e0 d6 e8 40 3d 7d e9 82 3d 14 a9 d4 bd 89 68 89 bd
       0.04709705 0.063921906 -0.103838116 -0.067093916
0001f0 67 aa 65 3c af fc a1 bd aa 73 a6 3d 17 28 a0 bd
       0.014017678 -0.07909524 0.0812753 -0.078201465
000200 99 83 26 bd e8 bb 22 bd ce 4a 19 3c 59 21 e1 bb
       -0.040652845 -0.039729983 0.009356214 -0.0068704304
000210 af aa b2 bd e4 18 d7 bb 89 7b 29 3d 54 13 47 bb
       -0.087239616 -0.0065642465 0.041377578 -0.003037651
000220 4a ca ca 3d db ed 91 bd 45 65 35 3d c0 19 9c 3d
       0.09901865 -0.071254455 0.04428603 0.07622099
000230 d5 a8 2e bd cc 11 66 3d f9 d5 10 bd 14 87 82 3d
       -0.04264148 0.056169316 -0.03536031 0.0637342
000240 3e 0a 30 bd 1d f7 82 3d 5d 1d 72 3d a5 a4 a0 bc
       -0.042978518 0.06394789 0.059110034 -0.019609759
000250 d5 29 b8 3d 00 9f 6b 3d 4c d1 6e 3d c7 23 bb 3d
       0.08992354 0.05752468 0.05830507 0.09137683
000260 56 61 d7 3c 36 06 5b bd b9 72 8a 3c 72 b4 49 bd
       0.02629153 -0.05347272 0.016900407 -0.04924435
000270 24 00 02 3c 07 5e 2d bc 53 0b ab bc cf 4a 16 be
       0.007934604 -0.0105815 -0.020879423 -0.14676975
000280 dd 0b 12 bd b4 82 ed 3c 73 1a 88 3d ca af dd 3b
       -0.035655845 0.028992988 0.0664567 0.0067653405
000290 81 c8 92 3c a2 ca e8 bc 11 a2 9d 3d 05 cb bc bc
       0.017917873 -0.028416935 0.07696927 -0.023046026
0002a0 02 21 09 bd c1 ec 56 bd 93 3e 67 3d c3 bf a6 bd
       -0.033478744 -0.05247188 0.05645616 -0.081420444
0002b0 45 0e 87 bd 72 09 e4 3c f0 73 6f bd 95 17 c4 bd
       -0.065945186 0.027836535 -0.058460176 -0.095748104
0002c0 57 73 3a bd 2f 66 d2 bd 8b 56 99 bd fe bf a7 bd
       -0.045520153 -0.10273396 -0.0748721 -0.081909165
0002d0 a6 56 95 bc 88 58 a4 bc e2 01 01 bd 00 ec 83 bd
       -0.018229794 -0.020061746 -0.031495936 -0.06441498
0002e0 03 06 e5 3c 50 d4 f1 3c 13 3f fe bd db 12 74 3c
       0.027956968 0.029520184 -0.12414374 0.014897074
0002f0 37 c8 06 3b 38 7b eb bb 77 86 38 3d f4 79 0a 3d
       0.0020566115 -0.0071863197 0.04505011 0.03380771
000300 a6 73 ce bc da 3a f7 3c 90 95 55 3c 5d bb 35 3d
       -0.02520163 0.03017943 0.013036147 0.044368137
000310 6f 34 38 bd 3a 77 4e bd d1 42 6e 3d fd d2 a1 bc
       -0.04497188 -0.050406672 0.05816919 -0.019753927
000320 92 4c ec 3c 69 7a 4f bd 17 56 f0 3a f1 32 d1 3c
       0.028845105 -0.05065385 0.0018336204 0.025536986
000330 10 91 eb bc 31 63 87 3c ef 5b 10 bd a6 9e 84 3d
       -0.028755695 0.01652679 -0.035243925 0.06475572
000340 b1 53 2f 3d f3 5a 10 3d 12 54 1a bd c0 f8 1f 3d
       0.042804424 0.035242986 -0.037677832 0.039055586
000350 83 3d b1 bc 6c 30 8a 3d 77 9d 0d bb 2d 2f cd 3d
       -0.021635776 0.06747517 -0.002160875 0.10018764
000360 2e d0 46 bd 8d 3b 96 bd 3a d2 43 3c ad ef f1 bc
       -0.04853838 -0.07335577 0.011951977 -0.029533232
000370 63 68 88 bd 67 0a 4a bc 72 a3 23 3d 76 c5 ea 3c
       -0.06660535 -0.012331582 0.039950795 0.02865861
000380 68 e5 ea bd bf 7f 0c b9 0d 5c 30 3d 2d 68 80 3d
       -0.11469537 -0.0001339903 0.043056536 0.0626987
000390 39 15 84 3c b0 e2 6f bd 8f 49 a9 3c 78 e9 db bd
       0.016123401 -0.058565795 0.020664958 -0.1073789
0003a0 cd f2 c3 3c 86 5e b4 bc 5c 55 6c bd b5 8a 0a 3d
       0.023919487 -0.022017729 -0.057698593 0.033823688
0003b0 cc 77 24 bd 34 d7 4c bd 3e e8 a8 3c 16 aa b7 bd
       -0.04015331 -0.05000992 0.020618554 -0.08967988
0003c0 b2 39 5f 3b d1 93 1d bd b8 a0 86 bc 9b 1b e5 3c
       0.0034061489 -0.038471047 -0.016434059 0.027967265
0003d0 4d 0d 7b 3d 23 19 05 bd 74 b3 d3 b9 b0 17 67 bd
       0.06129198 -0.032494675 -0.0004037876 -0.056419075
0003e0 97 6b 55 3d d0 aa e7 3c 25 aa ad bd 6f 33 0c 3d
       0.05210456 0.028279692 -0.08479718 0.03422874
0003f0 38 1b 94 3d 8b 39 a0 ba 05 d8 9f 3c 95 50 15 bd
       0.07231754 -0.001222418 0.019512186 -0.036453802
